onert-micro/examples/models/speech_recognition/speech_recognition_float.tflite (tflite, 68356 bytes, 4 tensors)

first_bias f4 [8]
-0.02364861 0.0024537065 -0.003642409 0.009224251 0.0047274865 0.00028512086 -0.09867688 -0.046651263
00000000: bbba c1bc 5dce 203b 7cb5 6ebb 5021 173c
00000010: 08e9 9a3b 467c 9539 1b17 cabd 6515 3fbd

Conv2D f4 [8, 10, 8, 1]
-0.003897646 0.018590959 0.057548556 0.0056318995 0.033706017 -0.038810816 0.0043927645 -0.055088785
-0.03249369 -0.00016458456 0.048874114 0.003265601 0.04506292 -0.020771401 0.028972255 -0.03054672
-0.04681032 -0.01752089 0.03998487 -0.01722747 0.04496224 -0.012124782 0.048142742 -0.005108532
-0.072155446 -0.02823166 0.03036525 0.0011432527 0.048975397 -0.011658648 0.06840949 0.011258609
-0.07902495 -0.043445542 0.022869125 -0.014143818 0.05838437 -0.018030003 0.06916285 0.01931641
-0.06963138 -0.03841571 0.013023386 -0.009637304 0.036091838 -0.006621979 0.067701615 0.013825454
-0.071064405 -0.03918699 0.0015869591 -0.004161436 0.032015916 -0.0068316013 0.06862245 0.024770493
-0.0664785 -0.031733476 0.006444802 -0.009182346 0.023533685 -0.010462562 0.07089969 0.01457935
-0.06838117 -0.030249499 -0.013702878 -0.006147513 0.018809764 0.006492718 0.05879425 0.010182296
-0.061509367 -0.050218895 -0.00827181 -0.026348213 0.0024019913 -0.005494058 0.037817508 -0.0141582005
-0.0025823617 -0.0012850085 -0.007785826 -0.0019397171 -0.010453186 -0.014140871 -0.0050116275 0.0030957607
-0.009972151 -0.00047718835 -0.006969394 -0.008485605 0.0033438837 -0.0025609706 0.0060194205 -0.012205561
0.01480615 0.010411453 -0.012649332 0.012063602 -0.018122843 0.010685573 -0.012728652 0.004416761
0.0032507728 0.01153452 0.003299182 0.002197703 -0.0074739982 -0.00972124 0.012545797 -0.0173018
0.0052076494 -6.503688e-05 -0.015155623 -0.0017495371 -0.010351396 -0.004466195 -0.0042748176 0.009992376
0.0042050863 0.008537329 0.00023447185 -0.008878379 0.009577197 -0.0028230564 -0.009346731 -0.011780068
-0.00876938 -0.011009101 0.008976255 -0.012760349 -0.010099915 -0.011153419 0.0013298038 0.0028408328
0.0078035602 0.006968541 0.0017410045 -0.010639771 -0.007868419 0.00044334383 -0.0016565832 0.013418743
0.0070916982 -0.009727258 0.0025919632 -0.004533744 0.0022980925 -0.005299397 0.000864375 -0.013780704
7.647856e-05 -0.0033698427 0.007774348 -0.013970882 -0.0030381298 -0.011838688 -0.017643707 0.008496146
0.030451374 0.02355882 0.018368224 0.01793509 0.022703603 -0.011613677 -0.0019291438 -0.032171693
0.022379002 0.02995904 0.006625547 0.017323434 -0.009033158 -0.021291923 -0.014212153 -0.0348658
0.013414318 0.01502229 -0.0074992827 0.021631444 -0.01738835 -0.014355835 -0.014181472 -0.029085398
0.011425149 0.034534913 -0.012058957 0.023008654 -0.03384658 -0.008975131 -0.015072519 -0.030242883
-0.017078463 0.01862126 -0.034981467 -0.008367662 -0.05971629 -0.02431627 -0.0039000104 -0.009683806
-0.048236273 -0.004603117 -0.05989332 -0.008956812 -0.05389607 -0.0049548447 0.009645896 0.0073968265
-0.06740245 -0.029073581 -0.049478542 -0.0068846885 -0.030782267 -0.0016124622 0.04046404 0.034869954
-0.063479744 -0.025678225 -0.0260186 0.0029360119 -0.008791439 0.007769361 0.06755187 0.06581968
-0.04003667 -0.018361375 -0.01116305 0.0063960208 0.0030812768 0.031872366 0.085946 0.068023555
-0.024094574 -0.03759951 0.005589665 0.0072142626 0.027254974 0.021207167 0.09563888 0.040950723
-0.026372092 0.0024798133 -0.012641518 0.022515353 -0.0039395387 0.0030928815 -0.02648301 -0.006476266
-0.0229279 0.029557114 -0.0069207833 0.040646315 -0.009941281 0.0034693284 -0.026850127 -0.0027927675
00000000: a66f 7fbb 114c 983c 09b8 6b3d cc8b b83b
00000010: 520f 0a3d 17f8 1ebd 2ef1 8f3b c7a4 61bd
00000020: 1a18 05bd 5594 2cb9 3930 483d b103 563b
00000030: e593 383d c928 aabc 3957 ed3c 1d3d fabc
00000040: 2ebc 3fbd f887 8fbc 2dc7 233d a020 8dbc
00000050: 532a 383d 06a7 46bc 5331 453d 7965 a7bb
00000060: 3cc6 93bd 1546 e7bc 8bc0 f83c 32d9 953a
00000070: 6d9a 483d ea03 3fbc 461a 8c3d 0776 383c
00000080: d5d7 a1bd f4f3 31bd 0858 bb3c 79bb 67bc
00000090: 7324 6f3d a8b3 93bc 41a5 8d3d 733d 9e3c
000000a0: e69a 8ebd cb59 1dbd 0a60 553c c8e5 1dbc
000000b0: 09d5 133d 30fd d8bb 25a7 8a3d 2884 623c
000000c0: 378a 91bd 8a82 20bd 8301 d03a a85c 88bb
000000d0: 1f23 033d a0db dfbb ed89 8c3d 7deb ca3c
000000e0: e125 88bd f6fa 01bd eb2e d33b 8d71 16bc
000000f0: b7c9 c03c 2a6b 2bbc db33 913d 3ade 6e3c
00000100: 6d0b 8cbd cccd f7bc 0982 60bc 1471 c9bb
00000110: ef16 9a3c dec0 d43b 3dd2 703d a5d3 263c
00000120: 3ff1 7bbd 54b2 4dbd 7c86 07bc 35d8 d7bc
00000130: ba6a 1d3b 8007 b4bb 88e6 1a3d ccf7 67bc
00000140: d73c 29bb bb6d a8ba 3e20 ffbb 1b3e feba
00000150: d743 2bbc 1daf 67bc 9438 a4bb 3fe2 4a3b
00000160: 3c62 23bc 232f fab9 845f e4bb 3507 0bbc
00000170: 0f25 5b3b f5d5 27bb 8f3e c53b d5f9 47bc
00000180: 7f95 723c cd94 2a3c 253f 4fbc 6aa6 453c
00000190: 5b76 94bc 8b12 2f3c d68b 50bc 7aba 903b
000001a0: eb0a 553b 49fb 3c3c 1737 583b 5707 103b
000001b0: 71e8 f4bb d645 1fbc e38c 4d3c 81bc 8dbc
000001c0: eea4 aa3b 6964 88b8 4a4f 78bc b950 e5ba
000001d0: e798 29bc 2959 92bb c513 8cbb 10b7 233c
000001e0: d2ca 893b 27e0 0b3c 8fdc 7539 9f76 11bc
000001f0: ade9 1c3c 0703 39bb 0823 19bc 3001 41bc
00000200: 72ad 0fbc 845f 34bc 2411 133c c810 51bc
00000210: 1d7a 25bc d4bc 36bc d04c ae3a 442d 3a3b
00000220: 02b5 ff3b 5c58 e43b 6b32 e43a 6f52 2ebc
00000230: 8bea 00bc 9a70 e839 b521 d9ba 4ada 5b3c
00000240: 7a61 e83b 145f 1fbc eddd 293b cd8f 94bb
00000250: 989b 163b 90a6 adbb 3997 623a 76c8 61bc
00000260: 1d63 a038 94d8 5cbb f5bf fe3b 20e6 64bc
00000270: 5c1b 47bb 0ef7 41bc 8989 90bc 6b33 0b3c
00000280: 2975 f93c 6dfe c03c f578 963c 9cec 923c
00000290: e8fc b93c 4b47 3ebc 53db fcba 77c6 03bd
000002a0: 2b54 b73c a96c f53c 1e1b d93b e0e9 8d3c
000002b0: d0ff 13bc 666c aebc 17da 68bc 71cf 0ebd
000002c0: bac7 5b3c 0d20 763c 8bbc f5bb 6d34 b13c
000002d0: 0372 8ebc bc34 6bbc 6859 68bc 8044 eebc
000002e0: 8c30 3b3c 7b74 0d3d ee92 45bc a57c bc3c
000002f0: b6a2 0abd 6e0c 13bc baf2 76bc ecbf f7bc
00000300: 22e8 8bbc 9d8b 983c ba48 0fbd 8518 09bc
00000310: 1299 74bd ea32 c7bc 5197 7fbb d4a8 1ebc
00000320: 6693 45bd bed5 96bb b352 75bd 98bf 12bc
00000330: 20c2 5cbd 405c a2bb d209 1e3c 1461 f23b
00000340: 4c0a 8abd b82b eebc 03aa 4abd f498 e1bb
00000350: 182b fcbc 4159 d3ba 9fbd 253d ccd3 0e3d
00000360: ab01 82bd 245b d2bc f624 d5bc 1b6a 403b
00000370: f809 10bc 2096 fe3b a358 8a3d 78cc 863d
00000380: 7efd 23bd 986a 96bc 3ae5 36bc b695 d13b
00000390: 3fef 493b 998c 023d 7504 b03d ef4f 8b3d
000003a0: fc61 c5bc f201 1abd 8229 b73b 9f65 ec3b
000003b0: d345 df3c a7ba ad3c 51de c33d f2bb 273d
000003c0: 490a d8bc 5d84 223b 5f1e 4fbc 1e72 b83c
000003d0: 3f17 81bb f1b1 4a3b e6f2 d8bc db36 d4bb
000003e0: 4bd3 bbbc c321 f23c bdc7 e2bb c07c 263d
000003f0: c1e0 22bc ac5d 633b ccf4 dbbc dd06 37bb

final_fc_bias f4 [4]
0.01719123 -0.020873163 -0.003804143 0.00748607
00000000: 9fd4 8c3c 32fe aabc ee4e 79bb b54d f53b

MatMul f4 [4, 4000]
-0.00064938626 -0.0034964918 -0.0013588383 0.0049353675 0.0035567777 0.0036260525 0.0033072033 0.001422197
0.003485806 -0.0066528227 -0.02239064 0.0043462985 -0.0075601107 -0.011064006 0.01925198 0.0043940404
-0.01584509 0.0025022014 -0.0027601612 -0.007455164 -0.011253873 -0.013705651 0.009251954 0.006795448
0.003831543 -0.008156286 -0.021463146 -0.008666932 0.0071273223 -0.01156129 -0.010291518 0.009581237
-0.004179107 -0.009328608 -0.0014545996 0.014892925 -0.011352033 -0.020731766 -0.0100504765 -0.0020567845
0.0066058715 -0.0058088 -0.004442355 0.0031472363 0.0022368217 -0.0105741145 -0.0047718226 0.01468164
-0.0036487058 -0.017895397 -0.017404195 0.0054977667 0.001284977 -0.016987229 -0.018946856 -0.006356798
0.007150418 0.01180395 -0.014614266 0.0041704974 -0.0021432547 -0.013462777 0.0011634558 0.0017736068
-0.007192958 0.0020694262 -0.0100595 -0.006319095 0.01454509 0.0028996342 -0.0012021826 0.0079142265
-0.0017873523 -0.0028264592 -0.0047733346 0.0146597745 0.0073109902 0.0007577486 -0.005089546 -0.004506061
-0.00036957493 0.017102014 -0.015918776 -0.0043858257 -0.003841365 -0.0061489963 -0.0049116756 -0.010979192
-0.008369542 0.0014718256 -0.016681803 -0.0066771125 0.019340785 -0.014998705 -0.0065520704 0.0163915
-0.0057253917 0.0043995683 -0.004082938 -0.003371943 -0.007733938 -0.02115045 -0.0033709365 -0.008655693
-0.000648509 0.009678375 -0.018154092 -0.006266184 0.008210148 -0.0141269 -0.0048712464 0.005894748
-0.0068216776 -0.01003318 -0.0036535484 -0.01155826 -0.013730058 0.0036682677 0.0010697831 0.010908272
-0.0059422385 0.0051559843 0.0055071195 0.018665394 -0.012432382 0.0007626646 0.0015654152 -0.0033832223
0.009789125 0.01155073 -0.004808679 -0.009816955 0.014881157 0.005557447 -0.0073231235 -0.008420268
-0.0019237987 0.004013611 -0.007723936 -0.00071852293 -0.0015799062 -0.008641795 0.010789628 -0.0014860409
0.013296102 -0.008341931 -0.0013153458 -0.016301172 0.0018214924 0.0025775253 -0.007454978 0.023229975
-0.0029771426 0.005503712 -0.01721115 0.0062363693 -0.009122534 -0.0051356354 -0.0029850653 -0.0057780184
0.0038350623 0.0055589024 -0.019573754 0.014441299 0.010035517 0.0014017433 -0.0052748583 0.0010157323
-0.0059241606 -0.0021615124 -0.008876182 0.0006290325 -0.0008064895 -0.02030443 0.014814012 -0.0014360405
-0.0016021433 0.006670717 -0.0030052979 0.002860387 -0.0073215337 -0.0034736714 -0.014366261 0.010578719
-0.011140792 -0.007123591 0.0014067489 0.0061818226 0.0061879433 -0.016023926 -0.00316016 0.012388769
0.0065164207 -0.0046758936 -0.0019432618 0.004922533 0.01184299 -0.014532729 -0.015467963 0.0042919107
0.010226258 -0.007891701 -0.0072065066 0.003021763 -0.00703768 -0.014772647 -0.008016294 0.012525443
0.0039845863 -0.011460222 -0.001508997 0.008514062 0.009644601 0.0027259742 -0.007268729 -0.0017116342
-0.010505268 -0.002254023 -0.00421102 -0.010446958 0.013838755 0.0045387414 -0.0029811112 -0.0048173987
0.0037856945 -0.00656456 -0.0121180555 -0.003915858 -0.0017222499 0.010468144 -0.0052790963 0.0067498265
0.0037212195 -0.0033741966 0.0048487675 0.0012422565 0.01818193 -0.019005878 0.0009507221 -0.005452916
-0.004621768 -0.004981164 -0.008121356 0.014703943 -0.0136412885 -0.014236114 -0.002394998 0.0010926143
0.012884549 -0.012364128 -0.01607388 -0.00012739266 -0.006481023 -0.0090623135 -0.002290136 0.011656762
00000000: 933b 2aba 6625 65bb 0c1b b2ba ddb8 a13b
00000010: d418 693b 11a3 6d3b aabd 583b 0369 ba3a
00000020: 1f72 643b ecff d9bb 936c b7bc 656b 8e3b
00000030: ceba f7bb ce45 35bc 54b6 9d3c e2fb 8f3b
00000040: 90cd 81bc f9fb 233b d2e3 34bb 734a f4bb
00000050: 2a62 38bc ab8d 60bc 8295 173c 59ac de3b
00000060: a01a 7b3b f1a1 05bc 7bd3 afbc bfff 0dbc
00000070: 508c e93b 916b 3dbc c19d 28bc 9ffa 1c3c
00000080: e4f0 88bb 05d7 18bc 43a8 beba 7401 743c
00000090: e1fd 39bc aad5 a9bc c1aa 24bc 1ecb 06bb
000000a0: 1176 d83b bf57 bebb 2d91 91bb dd41 4e3b
000000b0: a497 123b 0d3f 2dbc f35c 9cbb 438b 703c
000000c0: 201f 6fbb 5e99 92bc 3e93 8ebc 9c26 b43b
000000d0: ac6c a83a cd28 8bbc 7036 9bbc b04c d0bb
000000e0: 0e4e ea3b 5b65 413c ad70 6fbc aba8 883b
000000f0: d975 0cbb fb92 5cbc 197f 983a 5e78 e83a
00000100: e8b2 ebbb 369f 073b 9ad0 24bc 6910 cfbb
00000110: 874e 6e3c ca07 3e3b 8e92 9dba acaa 013c
00000120: 9745 eaba 1e3c 39bb a269 9cbb 8d2f 703c
00000130: 0891 ef3b a6a3 463a 35c6 a6bb 94a7 93bb
00000140: 82c3 c1b9 8619 8c3c 1868 82bc f9b6 8fbb
00000150: 69bf 7bbb 857d c9bb 1ff2 a0bb 12e2 33bc
00000160: 6720 09bc 46ea c03a 47a8 88bc aecb dabb
00000170: 9170 9e3c 21bd 75bc c0b2 d6bb 7847 863c
00000180: 119c bbbb 412a 903b 2bca 85bb d1fb 5cbb
00000190: f96c fdbb b543 adbc eeea 5cbb 9cd0 0dbc
000001a0: b400 2aba 0c92 1e3c e4b7 94bc 9054 cdbb
000001b0: db83 063c 8374 67bc fa9e 9fbb bb28 c13b
000001c0: 6188 dfbb 3562 24bc 5f70 6fbb db5e 3dbc
000001d0: 0af4 60bc 5267 703b f737 8c3a 9cb8 323c
000001e0: 1cb7 c2bb 88f3 a83b 1175 b43b 2be8 983c
000001f0: 31b1 4bbc 8eed 473a 9e2e cd3a 0db9 5dbb
00000200: 9162 203c 463f 3d3c 2092 9dbb 4bd7 20bc
00000210: 19d0 733c 3f1b b63b d0f6 efbb 2af5 09bc
00000220: f927 fcba 9c84 833b 1219 fdbb 425b 3cba
00000230: db14 cfba 5196 0dbc fbc6 303c 42c7 c2ba
00000240: e5d7 593c 98ac 08bc ae67 acba 098a 85bc
00000250: 25bf ee3a b3eb 283b e348 f4bb ca4c be3c
00000260: 2a1c 43bb 7c58 b43b 66fe 8cbc 755a cc3b
00000270: ae76 15bc d548 a8bb 16a1 43bb 8855 bdbb
00000280: ab55 7b3b 7427 b63b 2359 a0bc 339b 6c3c
00000290: 026c 243c b3ba b73a b8d8 acbb 5222 853a
000002a0: 761f c2bb 29a8 0dbb 686d 11bc a8e5 243a
000002b0: 986a 53ba 7a55 a6bc 78b6 723c 8639 bcba
000002c0: 02ff d1ba 0896 da3b 88f4 44bb 5575 3b3b
000002d0: 7ae9 efbb 89a6 63bb 7760 6bbc 5d52 2d3c
000002e0: de87 36bc 036d e9bb a962 b83a e390 ca3b
000002f0: 3bc4 ca3b 9c44 83bc b01a 4fbb 43fa 4a3c
00000300: b387 d53b 3d38 99bb 0cb5 feba 334d a13b
00000310: 1a09 423c af1a 6ebc 576d 7dbc 28a3 8c3b
00000320: 098c 273c 314c 01bc 8f24 ecbb c508 463b
00000330: 579c e6bb f908 72bc c656 03bc 8437 4d3c
00000340: 2291 823b a8c3 3bbc 8ac9 c5ba 907e 0b3c
00000350: 6304 1e3c 42a6 323b 852e eebb ea58 e0ba
00000360: 4a1e 2cbc 3bb8 13bb 99fc 89bb b829 2bbc
00000370: f2bb 623c b9b9 943b bf5e 43bb 45db 9dbb
00000380: 6a19 783b 851b d7bb cf8a 46bc 9950 80bb
00000390: 1ebd e1ba 9482 2b3c 45fc acbb a62d dd3b
000003a0: b4df 733b a021 5dbb 69e2 9e3b 36d3 a23a
000003b0: 45f2 943c 37b2 9bbc e139 793a 60ae b2bb
000003c0: 3372 97bb 0839 a3bb 700f 05bc cfe8 703c
000003d0: b67f 5fbc 973e 69bc 66f5 1cbb 0d36 8f3a
000003e0: b719 533c e992 4abc 5fad 83bc b594 05b9
000003f0: c35e d4bb 197a 14bc 1b16 16bb 01fc 3e3c
